word_segmentation/model_storage/ch7/model1_unconditioned_surname_generation/model.pth (torch, 51063 bytes, 7 tensors)

char_emb.weight f4 [88, 32]
0	0x00000000	0.0
1	0x00000000	0.0
2	0x00000000	0.0
3	0x00000000	0.0
4	0x00000000	0.0
5	0x00000000	0.0
6	0x00000000	0.0
7	0x00000000	0.0
8	0x00000000	0.0
9	0x00000000	0.0
10	0x00000000	0.0
11	0x00000000	0.0
12	0x00000000	0.0
13	0x00000000	0.0
14	0x00000000	0.0
15	0x00000000	0.0
16	0x00000000	0.0
17	0x00000000	0.0
18	0x00000000	0.0
19	0x00000000	0.0
20	0x00000000	0.0
21	0x00000000	0.0
22	0x00000000	0.0
23	0x00000000	0.0
24	0x00000000	0.0
25	0x00000000	0.0
26	0x00000000	0.0
27	0x00000000	0.0
28	0x00000000	0.0
29	0x00000000	0.0
30	0x00000000	0.0
31	0x00000000	0.0
32	0xbf29c0a7	-0.6630959
33	0xbe80a726	-0.25127524
34	0x3f814c6d	1.0101448
35	0x3df8ed81	0.12154675
36	0x3e223370	0.15839934
37	0x3f912787	1.1340188
38	0xbf93b2eb	-1.1538976
39	0xbe98c778	-0.29839683
40	0xbf01edea	-0.50753653
41	0xbf6c8619	-0.92392117
42	0x3f0bf4ee	0.5467061
43	0xbfbf54df	-1.4947776
44	0xbf9a54dd	-1.2057148
45	0x3f1262c9	0.57181984
46	0xbf18ec39	-0.5973545
47	0xbf3194bb	-0.6936757
48	0x3fd2a103	1.6455387
49	0xbf4d90f5	-0.8029931
50	0x3facfb08	1.3514109
51	0xbe8d454d	-0.27591935
52	0xbfc16307	-1.5108346
53	0x4006b49a	2.104773
54	0x4030d452	2.762959
55	0xbfdf8e45	-1.7465292
56	0x3fb9cdb5	1.4515902
57	0xbfc150f5	-1.5102831
58	0x3f523722	0.82115376
59	0xbe589a99	-0.21152724
60	0x3f4765e1	0.7788983
61	0x3fc44227	1.5332688
62	0x3fce0bd8	1.6097364
63	0xbece73eb	-0.40322813
64	0xbf820841	-1.0158769
65	0x3f23d7c4	0.6400111
66	0xbe5f550b	-0.21809785
67	0xbc0f10d0	-0.008732036
68	0xbf0a7729	-0.54088074
69	0x3eec338b	0.46133074
70	0xbe83c6d4	-0.2573763
71	0xbfb9dde4	-1.4520841
72	0x4015436d	2.3322403
73	0xbf0a9c7d	-0.5414503
74	0x3ea2570c	0.31707036
75	0x3f6561ca	0.8960234
76	0xbfc71965	-1.5554625
77	0x3fa222b7	1.2666844
78	0x3ed8aaf2	0.4231792
79	0x3e927350	0.286036
80	0x40381196	2.8760734
81	0xbfc9082b	-1.5705618
82	0x3fa2873c	1.269752
83	0x3f55a894	0.83460355
84	0xbfe9470d	-1.8224808
85	0xbfcbd0f8	-1.5923147
86	0x3f5b4481	0.85651404
87	0xbea0acf0	-0.3138194
88	0x3f1b4aa3	0.6066076
89	0xbf2ee831	-0.68323046
90	0x3f55aeed	0.8347004
91	0xbf4c478e	-0.79796684
92	0xbee315e3	-0.44352636
93	0xbee66afa	-0.45003492
94	0xbfa91ead	-1.3212487
95	0xbf2086f9	-0.6270595
96	0xbfd55e31	-1.666937
97	0xbfaebd08	-1.3651438
98	0xbe297f26	-0.1655241
99	0x3f76561e	0.96225154
100	0x3d013969	0.03154889
101	0xbf3ded43	-0.7419016
102	0xbe9877e0	-0.29778957
103	0x3c8c9f03	0.017165666
104	0xbe357a2f	-0.1772239
105	0xbe08a1bf	-0.13342951
106	0x3e968194	0.29395735
107	0x3fb1462d	1.3849541
108	0x3df7a11c	0.12091276
109	0x4022aca4	2.5417871
110	0xbf23f530	-0.64046
111	0xbffcac60	-1.9740105
112	0xbea8bd4d	-0.32956925
113	0x3c0265d7	0.007958851
114	0x3f6d1db9	0.9262348
115	0xbff1391e	-1.8845556
116	0x3e2af7fb	0.1669616
117	0x3eead08c	0.45862234
118	0xbfe2130e	-1.7662065
119	0x3f160331	0.5859862
120	0x3fe021cd	1.7510315
121	0x3e8fbad0	0.28072214
122	0x3e9f3690	0.31096315
123	0xbf275cb0	-0.65375805
124	0xbf285a33	-0.65762633
125	0x3ea30bce	0.31844944
126	0xbf0cb1b3	-0.5495865
127	0xbfbb82a5	-1.4649245
128	0xc0085b42	-2.13057
129	0x3ff5c7bc	1.9201579
130	0x3f77d08e	0.96802604
131	0xbeebee38	-0.46080184
132	0x3f903ef8	1.1269217
133	0x3fed3996	1.8533199
134	0xbe87bab8	-0.26509643
135	0xbfb977d0	-1.4489689
136	0xbdb28a2c	-0.087177604
137	0xbe24dd76	-0.16100106
138	0x3f59bc09	0.85052544
139	0x3f09dee2	0.5385572
140	0x3e5c84df	0.21535061
141	0xbf7bdf14	-0.98387265
142	0x3f1e071f	0.61729616
143	0x3f36e976	0.71449983
144	0x4014693e	2.3189235
145	0x3f783cac	0.9696758
146	0xbfd21201	-1.6411744
147	0xbf0dcd1e	-0.5539111
148	0xbe82134e	-0.25405353
149	0xbeb8e7a8	-0.3611424
150	0xbf82d2af	-1.0220546
151	0x3fadc0bf	1.3574446
152	0xbf65fa30	-0.8983488
153	0x3eaecf6f	0.34142634
154	0x3f872f15	1.0561243
155	0xbe014756	-0.12624869
156	0xbfb7325c	-1.4312243
157	0xbf397ed4	-0.7245915
158	0x3fbbb946	1.4665916
159	0xbec43641	-0.38322642
160	0xbf95f7ff	-1.1716307
161	0x3e9d7b03	0.30757913
162	0xbed21738	-0.4103334
163	0x401a0b31	2.406933
164	0xc046b819	-3.1049864
165	0x3e98ff87	0.29882452
166	0xbf680f83	-0.9064867
167	0xbe82231c	-0.2541741
168	0x3e61f8bd	0.22067542
169	0x3ffd2e8a	1.9779828
170	0xbecc787f	-0.3993568
171	0xbe9d8a1c	-0.30769432
172	0xbfaf1bb4	-1.3680329
173	0x3c296cea	0.010340909
174	0xc00731e5	-2.1124203
175	0xbfc2378c	-1.5173202
176	0xbe010457	-0.12599312
177	0xbf9f2e49	-1.2436
178	0x3e45f3dd	0.19331308
179	0x3e0d3855	0.1379102
180	0x3eeb1f8f	0.45922515
181	0x3f2afac2	0.66788876
182	0xbfd1b8fe	-1.638458
183	0x3f8c2f14	1.0951867
184	0x3f94c8eb	1.1623815
185	0x3fa8c0fd	1.3183895
186	0x3f12d0f6	0.573501
187	0xbf8a07bd	-1.0783612
188	0xbf696b6f	-0.91179556
189	0x4010faec	2.265315
190	0x3eb25305	0.34828964
191	0x3fbc67c4	1.4719167
192	0xbc2bd2a5	-0.010487233
193	0xbed7d570	-0.42155027
194	0x3ff17ea0	1.8866768
195	0x3fb6c142	1.4277728
196	0x3f603844	0.87585855
197	0xbee27454	-0.44229376
198	0xbeb3be9b	-0.35106358
199	0x3ecc6964	0.39924157
200	0x3dde8063	0.108643316
201	0xbfe2b7dd	-1.7712361
202	0x3fa0076a	1.2502263
203	0x3f073d2e	0.5282773
204	0xbfa41621	-1.2819253
205	0xbf7a6990	-0.97817326
206	0xbde8b2bd	-0.113622166
207	0x3d93dd64	0.07219961
208	0x3ef9daab	0.48799643
209	0xbf33c7ba	-0.70226634
210	0xbe80eb6b	-0.2517961
211	0xbf0cf6c7	-0.5506405
212	0x3ee44f54	0.44591773
213	0x3f381552	0.7190753
214	0x3fb50046	1.4140708
215	0x3f558611	0.83407694
216	0x3f250354	0.64458203
217	0x3f68214e	0.9067582
218	0xbef0d1da	-0.47035104
219	0xbf4c7323	-0.79863185
220	0xbf68a5b7	-0.9087786
221	0x3ea7a0a0	0.32739735
222	0xbf3e9c35	-0.74457103
223	0xbe19defd	-0.1502647
224	0xbf5b4a52	-0.8566028
225	0xbde46afc	-0.11153218
226	0xbe88d2eb	-0.26723418
227	0xbe968e14	-0.29405272
228	0xbec1c7c0	-0.3784771
229	0x3f406cbc	0.75165915
230	0xbce7dc7f	-0.028303383
231	0xbe8598a1	-0.2609301
232	0x3f831f50	1.0243931
233	0xbfd6540c	-1.6744399
234	0x3eaabb91	0.33346227
235	0xc00cf48f	-2.2024267
236	0xbf84fa98	-1.0388975
237	0x3d86eb19	0.0658781
238	0xbf463c2f	-0.7743558
239	0xbede4cba	-0.43417913
240	0x3fda7c13	1.7069114
241	0xbe10a4e8	-0.14125407
242	0xbf576b2b	-0.841479
243	0xbf886d27	-1.0658311
244	0x3dd02f4b	0.101652704
245	0xbed667d3	-0.41876087
246	0xbe3c2c46	-0.18376264
247	0xbf9d26e8	-1.2277498
248	0xbe85c1cd	-0.2612442
249	0x3ead4ee0	0.3384924
250	0xbf8ddb3b	-1.1082529
251	0xbf9af8b1	-1.2107145
252	0x3f642062	0.8911191
253	0xbfe1ad0d	-1.7630936
254	0xbef7def8	-0.484123
255	0x3faf6ee1	1.3705713

rnn.weight_ih_l0 f4 [96, 32]
0	0xbe43d7c8	-0.19125283
1	0x3ee14719	0.43999556
2	0xbebf254c	-0.37333143
3	0xbd73316a	-0.059373297
4	0xbd29d153	-0.041459393
5	0x3e13fecc	0.14452666
6	0xbe97a340	-0.29616737
7	0x3be705d4	0.0070502553
8	0xbc25f8bb	-0.010130103
9	0x3e3b9aa5	0.18320711
10	0xbebb7c0c	-0.36618078
11	0xbd002062	-0.031280883
12	0x3d0efba6	0.03490796
13	0x3ead05e0	0.33793545
14	0xbe1d941c	-0.1538853
15	0xbe2cfaed	-0.16892596
16	0x3e46c9cf	0.19412921
17	0x3e70120f	0.23444389
18	0xbca1d44e	-0.019754555
19	0xbdbc27fd	-0.09187315
20	0x3e7f1e3e	0.2491388
21	0xbf250403	-0.64459246
22	0xbd7f8023	-0.06237806
23	0x3d11e670	0.035620153
24	0xbde3e130	-0.111269355
25	0x3d91adc4	0.07113221
26	0x3e6270ec	0.22113389
27	0xbbbe35a0	-0.0058047324
28	0x3e566c0f	0.20939659
29	0x3c7d7b60	0.015471309
30	0xbcaf0b31	-0.021367641
31	0xbd062cf6	-0.03275772
32	0xbd824a6c	-0.06361851
33	0x3d8288c2	0.06373741
34	0x3e55c4a7	0.20875798
35	0xbe2e134d	-0.1699955
36	0x3e92c4f1	0.2866588
37	0x3cf78973	0.030216908
38	0xbe2e26c0	-0.1700697
39	0x3e8f5330	0.27993155
40	0x3d346b3c	0.04404758
41	0x3d7e4887	0.062080886
42	0x3e5cf588	0.21578038
43	0x3db2251e	0.08698486
44	0xbde8cdc9	-0.113673754
45	0xbe89c689	-0.26909283
46	0x3e1cd0a0	0.15313959
47	0xbcb61043	-0.022224551
48	0x3de8ccf7	0.11367219
49	0x3e12c929	0.14334549
50	0x3e926ad9	0.28597143
51	0xbe8075ea	-0.2508996
52	0x3e0b493d	0.13602157
53	0xbc1429a2	-0.009043129
54	0x3e770f20	0.24126863
55	0x3e1dbc4f	0.15403865
56	0x3c80e74a	0.015735287
57	0xbee6341b	-0.44961628
58	0xbd467876	-0.048454724
59	0xbe0cc42b	-0.13746707
60	0x3e47dab0	0.19517016
61	0xbe6ea90a	-0.23306671
62	0x3db2a8db	0.08723613
63	0xbe010c38	-0.12602317
64	0x3db854da	0.09000559
65	0x3e542781	0.20718195
66	0x3d9d26b7	0.076734
67	0x3ea94377	0.33059284
68	0xbe315b9a	-0.173201
69	0xbd8ce5f7	-0.068798
70	0x3eb87e16	0.36033696
71	0x3d4fbcaa	0.050717033
72	0xbdf85a1a	-0.121265605
73	0xbd8841ca	-0.06653173
74	0x3de2b644	0.11069921
75	0x3d72b009	0.05924991
76	0xbdd07144	-0.10177854
77	0xbec18c1f	-0.37802216
78	0x3df52181	0.11969281
79	0x3e701597	0.23445736
80	0xbc5d5372	-0.013508664
81	0x3bacdd48	0.005275402
82	0xbe20b23a	-0.15692988
83	0xbb428167	-0.002967918
84	0xbdad5ffa	-0.08465572
85	0x3e06c547	0.13161193
86	0x3d2742cb	0.040835183
87	0x3e0e3ea1	0.13891079
88	0x3e322425	0.173966
89	0x3e2a1081	0.16607858
90	0xbd719bc7	-0.05898645
91	0xbe956ed1	-0.2918611
92	0xbd5f5415	-0.054523546
93	0xbe3e598d	-0.18588848
94	0xbda75c10	-0.081718564
95	0x3c8470f2	0.016167138
96	0x3e8c1b03	0.27364358
97	0xbca731a9	-0.020409422
98	0x3de64e5a	0.11245413
99	0x3e994cf1	0.29941514
100	0x3d362390	0.04446751
101	0xbd42d09c	-0.047562227
102	0xbe5d8196	-0.21631464
103	0x3d2a3037	0.041549888
104	0xbe08d783	-0.13363461
105	0x3dd70de8	0.10500699
106	0x3da76493	0.0817348
107	0xbe398c38	-0.18119895
108	0xbe43fe65	-0.19140013
109	0xbee97966	-0.45600432
110	0xbd27d967	-0.040978815
111	0x3e899253	0.2686945
112	0xbe088b16	-0.13334307
113	0xbe5c4b41	-0.21513082
114	0xbe57831c	-0.21046108
115	0x3ea7fddf	0.32810876
116	0x3e9b8091	0.30371526
117	0x3de72273	0.112858675
118	0xbc6865a8	-0.014184393
119	0x3e5eab40	0.21745014
120	0x3df583ba	0.119880155
121	0x3df0a3ce	0.11749993
122	0xbe01bbde	-0.12669322
123	0xbdb5443f	-0.088509075
124	0xbca05ee4	-0.019576497
125	0xbddf9cbd	-0.10918567
126	0x3ea53f31	0.32274774
127	0xbe2f4f61	-0.17120124
128	0xbcc0319c	-0.023461156
129	0x3e46fca8	0.19432318
130	0xbd0325f5	-0.03201862
131	0x3e9ab5b6	0.3021676
132	0xbe428c32	-0.18998793
133	0xbe7c757e	-0.24654195
134	0xbe349598	-0.1763519
135	0x3ef360e6	0.47534865
136	0xbe021ebc	-0.12707037
137	0xbd93ecda	-0.0722291
138	0xbe1050e6	-0.1409336
139	0xbcc3f60b	-0.023921033
140	0xbe1d8f5b	-0.15386717
141	0x3e255318	0.16144979
142	0x3d50f021	0.051010255
143	0x3e2aa052	0.1666272
144	0x3d9778a1	0.07396055
145	0x3e5db4c3	0.21650986
146	0xbdb5fb15	-0.08885781
147	0x3e6d9565	0.2320152
148	0xbe0e968c	-0.13924617
149	0xbe0aab5b	-0.1354193
150	0xbc4d4e48	-0.012530871
151	0x3d04b384	0.032397762
152	0x3de83685	0.11338524
153	0xbeb1b147	-0.34705564
154	0xbd81e607	-0.06342702
155	0x3e3b8967	0.18314134
156	0xbe11e695	-0.14248116
157	0xbb065e90	-0.002050314
158	0x3eb42a19	0.35188368
159	0x3c8cd1c1	0.017189862
160	0xbe4f96b9	-0.2027234
161	0x3ea711c2	0.32630736
162	0xbe3c5e45	-0.18395336
163	0xbd61aa7b	-0.055094223
164	0xbe387740	-0.1801424
165	0xbe81218f	-0.25220916
166	0xbda7cbd8	-0.08193177
167	0x3e9169b9	0.28400972
168	0x3e079eb3	0.13244133
169	0xbe8a5e6c	-0.27025163
170	0xbeac4a35	-0.33650365
171	0xbdf6981e	-0.12040733
172	0x3e32d1fe	0.17462918
173	0x3ce9e88e	0.028553274
174	0x3d81944c	0.063271135
175	0xbd03e8b4	-0.032204345
176	0x3ec861d8	0.3913715
177	0xbe964507	-0.2934954
178	0xbe43c9a0	-0.19119883
179	0xbd5c289d	-0.05374967
180	0xbe02e4ba	-0.12782565
181	0xbec81d1e	-0.39084715
182	0xbd539a08	-0.051660568
183	0x3d8618a4	0.065476686
184	0x3ed44a9c	0.41463172
185	0x3d3bca1b	0.04584704
186	0x3d9be3a8	0.07611781
187	0xbd911c3e	-0.07085465
188	0x3e0f0180	0.13965416
189	0xbcbec7fc	-0.02328872
190	0x3e4ecdfc	0.20195764
191	0xbbdfb18f	-0.0068265866
192	0x3e0b8989	0.13626684
193	0x3dbe0660	0.0927856
194	0x3d41940a	0.04726032
195	0x3e5e4262	0.2170501
196	0xbde2979a	-0.11064072
197	0x3de444ee	0.1114596
198	0xbcf0ec3e	-0.029409524
199	0xbda3f0e0	-0.08004928
200	0x3d8734e3	0.06601884
201	0xbda500e5	-0.08056811
202	0xbccf4645	-0.025302062
203	0xbe33a3dd	-0.17542978
204	0xbe358fda	-0.17730656
205	0xbe47a9b9	-0.19498338
206	0x3d970d0c	0.07375535
207	0xbc8d5a33	-0.017254924
208	0xbd1326b6	-0.03592559
209	0xbd1d4244	-0.038393274
210	0xbe1bad26	-0.1520277
211	0xbe0bfde9	-0.13671078
212	0x3e54cdd2	0.20781639
213	0x3d9b725b	0.07590171
214	0xbd1ded8d	-0.038556624
215	0xbd836da0	-0.06417394
216	0x3d2bdf35	0.041960914
217	0xbe008cbb	-0.12553684
218	0x3df324e3	0.1187227
219	0xbd670dac	-0.056409523
220	0xbe656b54	-0.22404224
221	0xbe5aaca6	-0.21354923
222	0x3d38a02e	0.045074634
223	0xbe30ec2f	-0.17277597
224	0x3e4e6613	0.20156126
225	0x3e3ca40e	0.18421957
226	0x3e928df7	0.28623936
227	0x3e14667b	0.14492218
228	0x3e7bda8d	0.2459509
229	0xbd35b708	-0.044364005
230	0xbbf60187	-0.0075075063
231	0x3e649612	0.22322872
232	0x3e04d2fb	0.12971108
233	0xbd64932c	-0.055804417
234	0x3e24b176	0.16083321
235	0xbc101c88	-0.008795865
236	0xbd51f51e	-0.051259153
237	0xbc93451b	-0.017977288
238	0xbcc79e91	-0.024367603
239	0xbe76ce4c	-0.24102134
240	0xbe203fca	-0.15649334
241	0xbda8316b	-0.08212551
242	0xbcd184cb	-0.025576016
243	0xbdeff666	-0.11716919
244	0x3c48f150	0.012264565
245	0x3cbc7126	0.023003172
246	0x3c206249	0.009789058
247	0x3ec12188	0.37720895
248	0x3e19d564	0.15022808
249	0x3b7299d6	0.0037017963
250	0x3d053f54	0.032531098
251	0xbe8a49e5	-0.27009502
252	0xbe2263ec	-0.1585843
253	0xbe2da569	-0.1695763
254	0x3e37757e	0.17915913
255	0x3a6776ce	0.0008829654

rnn.weight_hh_l0 f4 [96, 32]
0	0x3d7b0dcb	0.06129245
1	0x3d595d65	0.053067584
2	0xbc406199	-0.011742019
3	0x3ce8b029	0.028404312
4	0xbe69f92b	-0.22848956
5	0x3e6539c2	0.22385314
6	0x3cc17135	0.023613552
7	0xbd1be192	-0.038056917
8	0xbeb2ace3	-0.34897527
9	0xbc36fd85	-0.011168842
10	0xbe17b1e6	-0.14813957
11	0xbe49bc9f	-0.1970086
12	0x3f018ae6	0.5060257
13	0x3e0cfe2a	0.13768831
14	0x3e27a4e5	0.16371496
15	0xbe54084f	-0.20706294
16	0xbe788a04	-0.24271399
17	0xbd85ae4e	-0.065273866
18	0xbe23ef68	-0.16009295
19	0xbe573c3d	-0.21019073
20	0x3cc30fef	0.023811309
21	0xbeeda4ef	-0.46414897
22	0x3e6a9098	0.2290672
23	0x3d694a28	0.056955487
24	0x3d584411	0.05279929
25	0x3e131f1f	0.1436734
26	0x3ec5230d	0.38503304
27	0x3d89cf89	0.06729037
28	0x3e7325fe	0.23744962
29	0xbd174533	-0.036931228
30	0x3dd17443	0.10227253
31	0x3d687dc1	0.056760553
32	0x3ebf1350	0.37319422
33	0x3eecae3a	0.46226674
34	0xbda1d277	-0.07901471
35	0xbe81c302	-0.25344092
36	0x3dccbada	0.099965766
37	0xbe406c8e	-0.1879141
38	0x3d85cb4f	0.06532919
39	0xbd3e5ea4	-0.046476975
40	0xbc68f573	-0.014218676
41	0x3dc7ac16	0.0974962
42	0xbd2362b6	-0.03988906
43	0x3ebe6924	0.3718959
44	0x3eba2e07	0.3636324
45	0xbe89243a	-0.2678545
46	0x3e917edd	0.28417102
47	0xbe49dbc4	-0.1971274
48	0xbacac81c	-0.0015471014
49	0x3dca8098	0.098878086
50	0xbcc3da09	-0.023907678
51	0x3e9d94a0	0.30777454
52	0x3e1315fd	0.14363857
53	0xbea854ce	-0.328772
54	0x3afb911a	0.0019193024
55	0x3d8a5ba0	0.06755757
56	0xbd41f045	-0.04734828
57	0x3dab0565	0.08350638
58	0xbe36e5a7	-0.17861043
59	0x3dbc7d84	0.09203628
60	0x3deeca48	0.11659676
61	0x3d3a0863	0.045418154
62	0x3da20878	0.079117715
63	0x3deb867c	0.1150026
64	0xbe53a6ec	-0.20669144
65	0x3f067c81	0.5253373
66	0xbe3ed588	-0.18636143
67	0xbe71b648	-0.23604691
68	0x3ef35fdb	0.4753407
69	0xbe173d7e	-0.14769551
70	0xbd0ee964	-0.034890547
71	0x3e1efee7	0.15526925
72	0x3cdf7f3f	0.027282355
73	0xbddd2091	-0.10797227
74	0x3de93fd3	0.11389127
75	0x3e3f3eaa	0.18676248
76	0xbdf4a0de	-0.119447455
77	0x3db52061	0.088440664
78	0x3d09e221	0.03366292
79	0xbe07afb7	-0.13250624
80	0xbd7335ed	-0.0593776
81	0xbd135212	-0.03596694
82	0xbdb5256f	-0.088450305
83	0x3e7eb9db	0.24875586
84	0x3e8ebc07	0.27877828
85	0xbe1ee46b	-0.15516822
86	0x3f090f0f	0.535386
87	0x3e5b4848	0.21414292
88	0x3d03db87	0.03219178
89	0x3e58661d	0.21132703
90	0x3e7001d7	0.23438202
91	0x3d961910	0.07328999
92	0x3e9eed29	0.31040314
93	0x3e124364	0.1428352
94	0x3e53ee5f	0.206964
95	0x3da7e1ab	0.081973396
96	0x3b80cb27	0.0039304676
97	0x3d1591bb	0.036515933
98	0x3e93c0fe	0.2885818
99	0xbe58f7d3	-0.21188287
100	0x3e19f79e	0.15035865
101	0xbeaccf80	-0.3375206
102	0xbcc805db	-0.024416855
103	0x3d7e7099	0.0621191
104	0x3d8b51ae	0.068026885
105	0xbe2c87d5	-0.16848691
106	0x3e6a1e11	0.22863032
107	0xbed08721	-0.40728095
108	0x3ecfb128	0.40564847
109	0x3ece4be7	0.40292284
110	0x3e7c9ce1	0.2466922
111	0x3e18f9a3	0.14938979
112	0x3cf68772	0.030093882
113	0xbd28f325	-0.041247506
114	0x3d2e1166	0.04249706
115	0x3ca02ad9	0.019551681
116	0x3dd420c3	0.10357811
117	0x3db5879b	0.08863755
118	0xbdd04d70	-0.1017102
119	0x3e1d5d9f	0.15367745
120	0x3dddbbc5	0.1082683
121	0x3e870284	0.26369107
122	0x3e89b7be	0.26897997
123	0x3c916f53	0.017753279
124	0x3e735061	0.23761131
125	0x3e161bef	0.14659093
126	0x3d30ef34	0.043196872
127	0xbe44330e	-0.19160101
128	0x3d0a8a93	0.03382356
129	0x3e7177c8	0.23580849
130	0x3e2d44ab	0.16920726
131	0xbe1e5256	-0.15461096
132	0x3ed2f0eb	0.4119943
133	0x3ca90e3e	0.020636674
134	0xbdcf5766	-0.10124092
135	0xbd810af7	-0.063009195
136	0xbd166bdb	-0.036723953
137	0x3de6e5ac	0.11274275
138	0x3d667578	0.05626437
139	0x3db5bef1	0.0887431
140	0xbe82ebc8	-0.25570512
141	0xbec39868	-0.38202214
142	0x3c246545	0.01003391
143	0xbc6ed904	-0.014578108
144	0xbdad1e4a	-0.08453043
145	0xbe88639b	-0.26638493
146	0xbc364573	-0.011124956
147	0x3e12e7d7	0.14346252
148	0xbcfb2cd8	-0.030661032
149	0xbeb15ac0	-0.3463955
150	0x3c9641f1	0.01834199
151	0x3e8d4353	0.27590427
152	0x3d203b38	0.039118975
153	0xbdadddd4	-0.08489576
154	0x3e3e2635	0.18569262
155	0xbde326bb	-0.110913716
156	0x3e6a8c15	0.22905
157	0x3e2477d9	0.16061343
158	0x3db073f8	0.08615869
159	0xbbafbfc4	-0.0053634364
160	0xbe35e015	-0.17761262
161	0xbedffe67	-0.4374878
162	0xbe1107f0	-0.14163184
163	0x3e35eb13	0.17765455
164	0x3e42e0e7	0.19031106
165	0xbecbf091	-0.39831975
166	0x3e2c8fe2	0.16851762
167	0xbe1b336e	-0.15156338
168	0x3dee0cc2	0.11623527
169	0x3c716589	0.0147336805
170	0x3d4c9b0a	0.049952544
171	0xbead338a	-0.33828384
172	0xbc9d118d	-0.019173408
173	0x3efc8873	0.49322852
174	0xbe60ede3	-0.21965747
175	0x3df0e2b2	0.11761989
176	0x3dabc457	0.08387058
177	0x3ce867f3	0.02836988
178	0xbd03dd51	-0.032193486
179	0xbec677eb	-0.38763365
180	0x3e0e20bc	0.13879675
181	0x3f0d218b	0.5512931
182	0x3de37fa8	0.11108333
183	0x3e4e6531	0.20155789
184	0xbe31886f	-0.17337202
185	0xbe4de4da	-0.20106831
186	0x3eac676f	0.33672664
187	0xbdb14673	-0.08656015
188	0xbc365ba0	-0.011130244
189	0x3e2ca940	0.16861439
190	0xbe62bc19	-0.22142066
191	0x3e8c69b6	0.274244
192	0xbcb88953	-0.022526419
193	0x3e58b83e	0.21164033
194	0x3e0b8a1b	0.13626902
195	0xbdc11e73	-0.09429636
196	0x3e0d1571	0.1377771
197	0x3cfb5ab6	0.030682903
198	0xbd8d4eac	-0.06899771
199	0x3db7335d	0.08945344
200	0x3e85ebdb	0.26156506
201	0x3e55b2d0	0.20868993
202	0x3e8825ee	0.26591438
203	0xbe994ff1	-0.29943803
204	0x3d9009b6	0.07033102
205	0x3b671a35	0.0035263423
206	0x3e02ff2f	0.12792657
207	0xbe801c96	-0.2502181
208	0xbdb768cb	-0.089555345
209	0xbded0eee	-0.11575113
210	0xbe38e3bb	-0.18055622
211	0x3d9dbaee	0.0770167
212	0xbd0e1813	-0.034690928
213	0xbe72a851	-0.2369702
214	0xbdbc539f	-0.09195637
215	0x3e4a43c4	0.19752413
216	0x3e3c9d64	0.18419415
217	0x3dd48c98	0.10378379
218	0x3e52a9bd	0.20572563
219	0xbe235d94	-0.15953666
220	0x3e9e3f34	0.30907595
221	0x3da2c6b2	0.079480544
222	0x3e09395e	0.1340079
223	0xbdac3321	-0.084081896
224	0xbe737032	-0.23773268
225	0x3d81ca1a	0.06337376
226	0x3df23a2b	0.11827501
227	0x3c3b4023	0.011428866
228	0x3db5494f	0.08851873
229	0xbe854b58	-0.26034045
230	0xbe7c5e37	-0.24645315
231	0x3e54a7db	0.20767157
232	0x3cc40d78	0.023932204
233	0xbd2b6299	-0.041842077
234	0x3e005a88	0.12534535
235	0x3cdcf974	0.026974417
236	0xbbc96f45	-0.0061472976
237	0x3c9b8876	0.018985968
238	0x3d1a94db	0.037739616
239	0xbee84810	-0.4536748
240	0xbda44510	-0.08020985
241	0xbeb9aeac	-0.36266077
242	0xbe2a51ca	-0.16632763
243	0x3e0f49c9	0.1399299
244	0xbd8980ce	-0.06714021
245	0xbe79c4bd	-0.24391456
246	0x3bc8fff7	0.006134029
247	0xbd1f9285	-0.03895809
248	0x3da18548	0.078867495
249	0x3ce34f94	0.027747907
250	0x3d0cdb9a	0.034389116
251	0xbda641f0	-0.08118045
252	0x3dfc8ed3	0.12331929
253	0x3e634ec3	0.22198014
254	0x3db9b751	0.09068168
255	0xbc734480	-0.014847875

rnn.bias_ih_l0 f4 [96]
0	0x3e7f6ea8	0.24944556
1	0xbd649571	-0.05580658
2	0x3d618da3	0.055066716
3	0x3d5cd6b3	0.05391569
4	0xbdd4d36d	-0.10391889
5	0xbe00499c	-0.1252808
6	0x3e6afac8	0.22947228
7	0x3e5bb912	0.21457317
8	0xbd696050	-0.056976616
9	0x3ceef94c	0.029171608
10	0xbdd53928	-0.10411292
11	0xbd01ee9a	-0.03172169
12	0x3d4fa330	0.050692737
13	0xbdb9790e	-0.090562925
14	0x3d414391	0.047183577
15	0x3d0f6c08	0.035015136
16	0x3dda3133	0.10653915
17	0x3e3d5771	0.18490387
18	0x3e48c06b	0.19604652
19	0x3dcbb084	0.09945777
20	0x3e218297	0.15772472
21	0x3e714f14	0.23565322
22	0x3da2c841	0.07948352
23	0xbcba12f9	-0.022714125
24	0x3e5a12ec	0.2129628
25	0x3e50cd2c	0.20390767
26	0x3e03b2de	0.12861201
27	0x3e998dfc	0.29991138
28	0x3e1a08cf	0.15042423
29	0x3e9a27ea	0.30108577
30	0x3d28416b	0.041078012
31	0x3e2c0cfc	0.16801828
32	0xbe83f39d	-0.257718
33	0xbe12459e	-0.1428437
34	0xbed5616a	-0.41675884
35	0xbe015100	-0.12628555
36	0x3d7ad6bf	0.061239954
37	0xbe17a0e2	-0.14807466
38	0xbe9e1397	-0.3087432
39	0xbde0bceb	-0.10973533
40	0xbe8fcb32	-0.28084713
41	0xbee1909e	-0.44055647
42	0xbe789646	-0.24276075
43	0xbdc9b8e7	-0.098497204
44	0xbecb06b9	-0.39653566
45	0xbec0e62c	-0.37675607
46	0xbd6d302c	-0.05790727
47	0xbec7906f	-0.38977382
48	0xbe4e7810	-0.20162988
49	0xbd8735d0	-0.06602061
50	0xbdbdf647	-0.09275489
51	0xbdbf4337	-0.09338992
52	0xbeb67630	-0.35637045
53	0xbe76012e	-0.24023888
54	0x3d2308d9	0.03980336
55	0xbe40bdae	-0.18822357
56	0xbcf6d95a	-0.030132938
57	0x3cb066fd	0.021533484
58	0xbd3b7c25	-0.04577269
59	0xbdc5df35	-0.09661714
60	0x3d13335c	0.035937652
61	0xbe7305af	-0.23732637
62	0xbe354f1e	-0.17705962
63	0xbe3acc25	-0.18241937
64	0x3d6ac6ff	0.057318684
65	0x3e1fe89e	0.1561608
66	0x3dfd6d10	0.12374318
67	0xbe42bbcc	-0.19016951
68	0x3e827392	0.25478798
69	0x3e6b1cfe	0.22960278
70	0xbda244dc	-0.0792329
71	0x3e55cc61	0.20878746
72	0xbd5d2852	-0.05399353
73	0x3e5b339d	0.21406408
74	0xbe4426b3	-0.19155388
75	0x3e6fbee0	0.23412657
76	0xbda71686	-0.08158593
77	0xbcced760	-0.025249183
78	0x3e08b226	0.13349208
79	0xbe3613d8	-0.17781007
80	0xbd1d44ff	-0.038395878
81	0xbde2401b	-0.110473834
82	0xbba3baa3	-0.004996614
83	0xbc0cd6bd	-0.0085961195
84	0xbde81886	-0.113328025
85	0xbe038819	-0.12844886
86	0x3dc6422c	0.0968059
87	0xbd94fced	-0.07274804
88	0xbb1035c4	-0.0022004703
89	0x3dc51b84	0.09624389
90	0xbda65341	-0.08121348
91	0xbc712433	-0.014718103
92	0x3e81ed48	0.25376344
93	0x3dfcffdf	0.12353491
94	0x3e270b9d	0.16313024
95	0xbdac4e74	-0.08413401

rnn.bias_hh_l0 f4 [96]
0	0x3e0bf0b6	0.13666043
1	0x3e067a77	0.13132654
2	0x3e4c7bcb	0.19969098
3	0xbc9c2c66	-0.01906414
4	0x3dc8c2fb	0.098028146
5	0x3dee604f	0.11639463
6	0x3df71a87	0.120656066
7	0x3dd0d74f	0.10197317
8	0xbc4321e3	-0.011909935
9	0x3e91e565	0.28495327
10	0xbe00fa91	-0.12595583
11	0xbe09187f	-0.13388251
12	0xbdc37808	-0.095443785
13	0xbe253b65	-0.16135938
14	0xbd78f30b	-0.06077866
15	0x3dc34d49	0.09536225
16	0xbcda7bd0	-0.026670367
17	0xbcde7d10	-0.027159244
18	0x3e091172	0.13385561
19	0x3c817a67	0.015805436
20	0x3e494b7c	0.19657701
21	0x3d335664	0.04378356
22	0xbd7a8040	-0.061157465
23	0x3e4336b3	0.19063835
24	0x3c52d9b1	0.0128692845
25	0xbd5f0285	-0.054445762
26	0xbdbbb72c	-0.09165797
27	0x3ddb4de1	0.107082136
28	0x3dbe9106	0.09305005
29	0x3dc64881	0.09681798
30	0xbb2f4377	-0.0026743093
31	0x3d9b4bd1	0.0758282
32	0xbecd5335	-0.40102544
33	0xbe275122	-0.16339543
34	0xbedc8ae4	-0.43074715
35	0xbebea29a	-0.3723343
36	0xbe3f3e01	-0.18675996
37	0xbd67c1af	-0.056581195
38	0xbe8d1fd3	-0.27563342
39	0x3d551eda	0.052031375
40	0xbe7d66a0	-0.2474618
41	0xbefe478e	-0.49663967
42	0xbe40182c	-0.18759221
43	0xbeb6dbec	-0.35714662
44	0xbee22e7b	-0.44176087
45	0xbec799c7	-0.3898451
46	0x3cf39036	0.029731851
47	0xbe8763d1	-0.2644334
48	0xbe994942	-0.29938704
49	0xbea519a3	-0.32246122
50	0xbe159b41	-0.14610006
51	0xbd3a99f3	-0.045556974
52	0xbe3e0f51	-0.1856053
53	0xbeb987e1	-0.3623648
54	0xbddae19c	-0.10687563
55	0x3d9abb93	0.07555308
56	0xbd6a93c9	-0.057269845
57	0xbe818b49	-0.2530158
58	0xbd1e315d	-0.038621295
59	0xbecb0e60	-0.39659405
60	0xbe5775ad	-0.21040983
61	0xbdbf9465	-0.09354476
62	0xbe4593af	-0.19294618
63	0xbe3e6a5e	-0.18595263
64	0xbe15b90c	-0.14621371
65	0x3ea80a2c	0.3282026
66	0x3e878d0d	0.264748
67	0xbe952aca	-0.29134208
68	0x3e0a6373	0.135145
69	0xbda275c1	-0.07932616
70	0xbdbc2d49	-0.09188325
71	0x3e21a94f	0.15787242
72	0x3d94837d	0.07251642
73	0xbdbc53a2	-0.09195639
74	0x3e4c9a73	0.19980793
75	0x3dd71cd4	0.105035454
76	0x3e5b25b7	0.21401106
77	0x3e30d810	0.17269921
78	0xbd90c146	-0.07068114
79	0xbe5ed1ec	-0.21759766
80	0xbe925ca1	-0.28586295
81	0x3db7e9ee	0.089801654
82	0xbdf5d5c9	-0.12003667
83	0x3e58f56c	0.21187371
84	0xbe00337e	-0.12519643
85	0xbe479b43	-0.19492821
86	0x3deba089	0.11505229
87	0x3e207c51	0.15672423
88	0x3e4ace3b	0.19805233
89	0x3d3a4169	0.045472536
90	0x3e666834	0.22500688
91	0xbe0a8b8a	-0.13529792
92	0x3e86fd6f	0.2636523
93	0x3e8e9d04	0.27854168
94	0x3e552911	0.20816447
95	0x3d1351ff	0.03596687

fc.weight f4 [88, 32]
0	0x3e40f923	0.18845038
1	0xbe8c66ce	-0.27422184
2	0xbeb08eea	-0.34484035
3	0x3e287cb5	0.16453822
4	0xbe96ccc4	-0.294531
5	0x3e6fcd8e	0.23418257
6	0x3e771bd5	0.24131711
7	0xbed368d7	-0.41290924
8	0xbe5f3d86	-0.21800813
9	0xbeb12cd4	-0.34604514
10	0xbea9a3ba	-0.33132726
11	0x3c76a359	0.015053594
12	0xbe7eee7c	-0.24895662
13	0xbe5a4438	-0.21315086
14	0xbe4601dd	-0.19336648
15	0x3eb81a18	0.35957408
16	0x3e6bed47	0.23039733
17	0x3dcb3fe0	0.099242926
18	0x3e7a5efe	0.24450299
19	0xbdac1845	-0.084030665
20	0x3e5758bf	0.21029948
21	0x3c24bcb2	0.010054754
22	0xbeab740f	-0.33486983
23	0xbe9913d2	-0.29897934
24	0xbe62a7fa	-0.2213439
25	0xbe3f483d	-0.186799
26	0xbe0f9053	-0.14019899
27	0x3edebf0f	0.4350514
28	0xbedd072a	-0.43169528
29	0xbebc597c	-0.3678702
30	0xbe3cd34b	-0.18439977
31	0x3e161e39	0.14659967
32	0x3e3f2b39	0.18668832
33	0xbe366904	-0.17813498
34	0xbeb94d67	-0.36191866
35	0x3e57db33	0.21079712
36	0xbed0fcdf	-0.40817925
37	0x3e372205	0.17884071
38	0x3ec4e701	0.38457492
39	0xbedb314e	-0.42811054
40	0xbe46ff32	-0.19433287
41	0xbea036e6	-0.31291884
42	0xbec1f5a5	-0.37882724
43	0x3e1514d6	0.1455873
44	0xbe00f249	-0.12592424
45	0xbddb6af6	-0.107137606
46	0xbe234595	-0.15944512
47	0x3e77161c	0.24129528
48	0x3e3672ab	0.1781718
49	0x3d733c06	0.059383415
50	0x3e8b6a3c	0.27229488
51	0xbea4a90c	-0.32160223
52	0x3ea92d20	0.3304224
53	0x3dbbfca0	0.09179044
54	0xbe72c789	-0.23708929
55	0xbec6fffd	-0.3886718
56	0xbe1ca5ed	-0.1529767
57	0xbec08846	-0.37603968
58	0xbe93410e	-0.2876057
59	0x3ef1c194	0.47218
60	0xbea99e07	-0.33128378
61	0xbefea270	-0.49733305
62	0xbe447cd1	-0.19188239
63	0x3e4b110d	0.19830723
64	0x3e51dbaf	0.20493959
65	0xbe88c143	-0.26709947
66	0xbec53541	-0.38517192
67	0x3e63e611	0.22255732
68	0xbec34b32	-0.38143307
69	0x3e6d2139	0.23157205
70	0x3f0c8ab5	0.5489915
71	0xbf0081be	-0.5019797
72	0xbdf1fbea	-0.11815627
73	0xbe619c20	-0.22032213
74	0xbeac5d74	-0.3366505
75	0x3e093cb2	0.1340206
76	0xbe7d505b	-0.24737684
77	0xbe0e4ed0	-0.13897252
78	0xbe1a0bc8	-0.15043557
79	0x3e9c8a03	0.30574045
80	0x3e82e600	0.255661
81	0x3de6d3fc	0.112709016
82	0x3e4cce38	0.20000541
83	0xbe25c90f	-0.16189979
84	0x3e736cf8	0.23772037
85	0x3d4f35cb	0.05058841
86	0xbe4589e1	-0.19290878
87	0xbed489d8	-0.41511416
88	0xbe827dc3	-0.25486574
89	0xbed4bf11	-0.41552022
90	0xbeb58bd3	-0.3545824
91	0x3ea8181b	0.3283089
92	0xbe4ee8f4	-0.20206052
93	0xbe85d936	-0.2614228
94	0xbeb0a15d	-0.3449811
95	0x3e85cb3a	0.26131612
96	0xbeabdfcb	-0.33569178
97	0x3e55b469	0.20869602
98	0x3e3381de	0.17530009
99	0xbe5c7be5	-0.21531637
100	0xbf07ae6d	-0.5300053
101	0x3e70e4d4	0.23524791
102	0xbe331821	-0.17489673
103	0x3e3baba4	0.18327194
104	0x3e7d9540	0.24763966
105	0x3e4d746f	0.20063947
106	0x3cd01a09	0.02540304
107	0xbe510b67	-0.20414506
108	0x3ebc48b1	0.3677421
109	0xbe4a68bc	-0.19766515
110	0x3e8f3511	0.27970174
111	0xbe52c5f5	-0.20583327
112	0xbe765f19	-0.24059714
113	0x3ec6d3d4	0.38833487
114	0xbe8de589	-0.27714184
115	0x3e6d582a	0.23178163
116	0xbe741ec3	-0.2383986
117	0xbe87dc9e	-0.26535505
118	0xbed05175	-0.40687147
119	0xbf02ab63	-0.51042765
120	0x3e581cc2	0.2110472
121	0x3e83aeaa	0.25719196
122	0xbeb18a00	-0.34675598
123	0xbe502219	-0.20325507
124	0x3e63997b	0.22226517
125	0x3e481d7f	0.19542502
126	0x3e55b8ef	0.20871328
127	0xbe5fbc30	-0.21849132
128	0xbe0476e7	-0.12935983
129	0x3d9e80ab	0.07739385
130	0xbec1e435	-0.3786942
131	0x3ea51263	0.3224059
132	0x3df2899f	0.118426554
133	0xbe4a056f	-0.19728635
134	0x3ca82d39	0.020529376
135	0xbe327ec3	-0.17431168
136	0xbeaa863d	-0.3330554
137	0xbeae0701	-0.3398972
138	0x3d965f5d	0.07342408
139	0x3e896dde	0.26841635
140	0x3e43fde7	0.19139825
141	0x3e1322e9	0.14368786
142	0xbe76e92f	-0.2411239
143	0x3eb77375	0.35830274
144	0x3eb8fefc	0.36132038
145	0x3e9d18b7	0.30682918
146	0x3d87839d	0.066169
147	0x3d113f6b	0.03546087
148	0x3ea53ac3	0.32271394
149	0x3e9c997b	0.30585846
150	0x3e23d3fe	0.15998837
151	0x3dea2779	0.1143331
152	0xbeb8d3dd	-0.3609914
153	0xbd5645db	-0.052312713
154	0x3d75462e	0.05988138
155	0x3ece713b	0.40320763
156	0xbd6b41b8	-0.05743572
157	0x3c71560f	0.014729991
158	0xbebc7d7f	-0.36814496
159	0x3e9da18a	0.30787307
160	0x3eac756c	0.33683336
161	0x3e88bbca	0.26705772
162	0x3e4fef9c	0.20306247
163	0xbe5c7a09	-0.21530928
164	0x3e415d9f	0.1888337
165	0x3ef82efa	0.4847334
166	0xbde3ae7e	-0.11117266
167	0x3e1cfccd	0.15330811
168	0x3e3bec5b	0.18351881
169	0x3e423a82	0.18967631
170	0xbeacf5a6	-0.33781165
171	0x3e5267e8	0.2054745
172	0x3d09f983	0.03368522
173	0xbe83ba8a	-0.25728256
174	0x3c185739	0.009298139
175	0xbe571e20	-0.21007586
176	0xbe5aa8f7	-0.21353517
177	0xbe203a21	-0.15647174
178	0xbe28ba86	-0.16477403
179	0x3e7c30f9	0.24628057
180	0xbe68404d	-0.22680779
181	0xbea57abb	-0.32320198
182	0x3dc0f054	0.09420839
183	0x3e5386b5	0.20656855
184	0x3e45302e	0.1925666
185	0x3e56a7c2	0.20962432
186	0x3e1c10d0	0.15240788
187	0xbe3d33c4	-0.18476778
188	0x3e4b7570	0.19869018
189	0x3e2ddde9	0.16979183
190	0x3e5ff2a5	0.21869905
191	0xbd80d691	-0.06290925
192	0xbd5bf42e	-0.053699665
193	0xbcd2f17e	-0.025749918
194	0x3e37349d	0.17891164
195	0xbe3ce7fe	-0.18447873
196	0x3e618bf6	0.22026047
197	0xbe81e899	-0.2537277
198	0xbe0d3349	-0.13789095
199	0x3df86035	0.12127725
200	0x3d73a83f	0.059486624
201	0x3d8cc59f	0.06873631
202	0x3e8df19f	0.27723405
203	0xbe4e1752	-0.20126083
204	0x3e20af4f	0.15691875
205	0xbe29eb16	-0.16593584
206	0x3e45e872	0.19326952
207	0xbe331ee4	-0.17492253
208	0xbe3cd925	-0.18442209
209	0xbe8865c7	-0.2664015
210	0xbe5530e3	-0.2081943
211	0x3d462790	0.048377573
212	0xbe4d385c	-0.2004103
213	0xbe287e8a	-0.16454521
214	0xbd0be301	-0.034152035
215	0x3e69f5e5	0.22847708
216	0x3e406d74	0.18791753
217	0x3def8d95	0.116969265
218	0xbdfb1b83	-0.12261107
219	0xbe2d8964	-0.16946942
220	0x3e2db818	0.16964757
221	0x3e06cf5c	0.13165039
222	0x3e2315c9	0.15926279
223	0xbe369f9e	-0.17834327
224	0x3eb8eae1	0.36116698
225	0x3e8de994	0.27717268
226	0x3e44e8f2	0.19229487
227	0xbe5a878d	-0.21340771
228	0x3e84b809	0.25921658
229	0x3e813706	0.25237292
230	0xbe2243bf	-0.15846156
231	0x3e1816ff	0.14852522
232	0x3e6d244d	0.23158379
233	0x3e6bb465	0.23018034
234	0xbeaab300	-0.3333969
235	0x3ea00964	0.31257164
236	0xbdfd23fb	-0.12360378
237	0xbe4a4418	-0.19752538
238	0xbcc2dd45	-0.02378715
239	0xbe6c7b67	-0.2309395
240	0xbe54f675	-0.20797141
241	0x3dd53d0a	0.10412033
242	0xbe8618ac	-0.26190698
243	0x3e25ff15	0.16210587
244	0xbe603daf	-0.2189853
245	0xbea957fa	-0.33074933
246	0x3e412acc	0.18863982
247	0x3e8a9eb6	0.27074212
248	0x3e46eca0	0.19426203
249	0x3e08737a	0.13325301
250	0x3e5998d7	0.2124971
251	0xbe41e67c	-0.18935579
252	0x3e4dc5ce	0.20094988
253	0x3e006895	0.12539895
254	0x3e603a31	0.21897198
255	0xbdae4c80	-0.08510685

fc.bias f4 [88]
0	0xbeca1ab4	-0.39473498
1	0xbea46974	-0.32111704
2	0xbe9231ac	-0.28553522
3	0x3eb7153c	0.35758388
4	0xbe28cfe3	-0.16485552
5	0x3e3abc6c	0.1823594
6	0x3d8312ed	0.06400094
7	0x3ed3d17c	0.4137076
8	0xbc347efe	-0.011016605
9	0xbd863696	-0.0655338
10	0xbd095b7e	-0.03353452
11	0xbbe6af7e	-0.0070399633
12	0xbcc69efc	-0.024245732
13	0xbe9123fe	-0.28347772
14	0xbafe1b72	-0.0019386841
15	0x3df3fb33	0.11913147
16	0xbdc6d91f	-0.09709381
17	0x3d9ed426	0.07755308
18	0x3e8bf7c0	0.27337456
19	0xbe0c248b	-0.13685815
20	0xbe2fadc1	-0.17156126
21	0xbe5bb7f4	-0.21456891
22	0xbda5b60e	-0.08091365
23	0x3e8d750c	0.27628362
24	0xbe407429	-0.18794312
25	0x3e5d0c92	0.21586826
26	0xbdb883d0	-0.09009516
27	0x3ebbc062	0.36670214
28	0xbe0e3318	-0.13886678
29	0xbb2dc8d0	-0.0026517399
30	0x3df0de24	0.1176112
31	0x3de6c05a	0.11267157
32	0x3de031a6	0.1094697
33	0xbe462a43	-0.19352059
34	0xbdf20148	-0.11816651
35	0xbe97c940	-0.2964573
36	0xbe11584c	-0.14193839
37	0xbd0e7bf0	-0.034786165
38	0xbe8d14dc	-0.27554977
39	0xbe61ac36	-0.2203835
40	0xbe7cb851	-0.24679686
41	0xbe6c1f6e	-0.23058864
42	0xbd89e43f	-0.067329876
43	0xbd3fb691	-0.04680497
44	0xbdbb6326	-0.091497704
45	0xbea03bd6	-0.3129565
46	0xbdaf507a	-0.085602716
47	0xbe64e6a4	-0.22353607
48	0xbd2625d5	-0.040563423
49	0xbe7b372b	-0.24532764
50	0xbe463fee	-0.19360325
51	0xbea617cf	-0.3244004
52	0xbeb556c9	-0.35417774
53	0xbdd7fa88	-0.10545832
54	0xbea18f68	-0.31554723
55	0xbe750c2c	-0.23930424
56	0xbe97fb36	-0.29683846
57	0xbdd0fef8	-0.102048814
58	0xbe0f33bb	-0.13984577
59	0xbeb6d4aa	-0.35709125
60	0xbe3e0bb6	-0.18559155
61	0xbe903aa4	-0.2816974
62	0xbda3d182	-0.07998945
63	0xbe4a4d59	-0.19756068
64	0xbe675f30	-0.22594905
65	0xbe820ad3	-0.25398883
66	0xbe48671f	-0.19570588
67	0xbe43107a	-0.19049254
68	0xbd9eee5b	-0.077603064
69	0xbd91ad91	-0.07113183
70	0xbec54f28	-0.38536954
71	0xbdc045d4	-0.09388319
72	0xbe856e0c	-0.26060522
73	0xbe674155	-0.22583516
74	0xbe90f386	-0.28310794
75	0xbda1946d	-0.07889638
76	0xbe87fe4e	-0.26561207
77	0xbd9031c6	-0.070407435
78	0xbe97688c	-0.2957195
79	0xbecaba54	-0.39595282
80	0xbe9f015e	-0.3105573
81	0xbeb1ea28	-0.3474896
82	0xbe68004b	-0.22656362
83	0xbeb6cf4c	-0.3570503
84	0xbd90cd97	-0.07070463
85	0xbe2008a7	-0.156283
86	0xbe752ec3	-0.2394362
87	0xbe96438d	-0.29348412
